lenet.pkl (torch_old, 88465 bytes, 8 tensors)

conv1.weight f4 [10, 1, 5, 5]
00000000: e101 73bd 7892 eebe 25d7 03be 6918 4bbe
00000010: 3432 ccbe 60de 4d3c 8a23 213d 5cad ab3d
00000020: 7bd3 833e 674c 193e 58f5 893e e5a1 663e
00000030: 40d3 1dbe 0be0 eabd 21a3 383e 239d 7fbd
00000040: d1d2 223d 4a80 1a3c c258 c5bc e180 1c3d
00000050: 0474 043d 74bd 973d 9e42 3a3e d55f 7c3d
00000060: d5ca fc3d 67e9 86bd bb2a 9ebe 912a a7be
00000070: 84f4 b2bb 09b4 e63c 5a30 1cbe f971 31be
00000080: fdda 92bc b598 adbc a5a5 8c3e 7962 3ebe
00000090: 206d 7abe f9d9 c9bd 8562 a93d 4092 883e
000000a0: 185f 7bbe 5e59 2abe 3756 fcbc bf49 dc3d
000000b0: 752a 8c3e 39c0 36be c859 3ebe 2b19 2bbe
000000c0: 49b5 163e 455b b23e 5976 a9be a712 973e
000000d0: a262 9a3e 3d86 4dbd 27e5 3fbe 01bc 6f3e
000000e0: e5f4 bb3e 7ecd de3d d8f0 b4be 7b8b ffbd
000000f0: cb65 aa3e 0738 d93d 3ce1 cfbe 4278 b8be
00000100: 61d1 96be 5cf5 23bd 5964 6cbe a3b9 bebe
00000110: a097 f9bd 5bc4 153e 47aa 3ebe 92f9 22be
00000120: abd1 123d 2482 5bbd 7538 bb3d 9422 d43c
00000130: 0590 5d3e dee8 b13e a16f a03e 17ae 0d3e
00000140: 12f4 9bbe ee44 33bc 19a7 293e 8ee0 8d3e
00000150: 4101 b03e b398 d1be 8e46 20be 9636 9bbd
00000160: f376 55bd adaa d93c 978d d3be 6714 e2be
00000170: 0797 efbe 56a3 c5be e090 9abe 236e 813e
00000180: 136f edbd 306a 27be 6562 ebbd 2358 f2bd
00000190: bf80 8f3c cbf0 b0bd d515 c5be 1cab 06be
000001a0: f48b 943d 5010 c73e 2d7d 78bd 8bfe 53be
000001b0: 74da d1bc a7e9 0f3e 5508 753e 72c5 a93d
000001c0: 341c b7be b42d c13d 2851 2e3e 9112 3e3e
000001d0: 5b19 7d3b 986f 80be abde 87bd 0280 a53d
000001e0: dca8 fe3d 1e09 c43d e4cd 263e 6ad8 4cbb
000001f0: 17d5 0f3e e9c7 093e 9256 513e fce2 b33c
00000200: 56c7 7ebe e635 0dbd 03bb ac3d c53b 583e
00000210: 7ddf b138 9abf 04bd 1e88 37be 4650 18be
00000220: c7ab b03e a30a c0bd ef2a 7bbe c84b 2bbe
00000230: 62fe 30be aa61 963e 80a4 593e 51e9 9c3d
00000240: 9842 ad3d cc06 07bd 9b8b be3c d35b a7bd
00000250: 1f0c 17be be78 24be 85cd 9a3d 4af0 0f3e
00000260: 8e69 5b3e 0648 f8bc a0d8 97be 5688 0dbe
00000270: 621d 76be 9f83 ffbd 0f2d a9be 11b8 f1be
00000280: 4c4e 95bd 020f 2fbe e36f 573e 2482 1c3f
00000290: e94f ca3e 3897 813e c3da 3f3e bbe1 2c3e
000002a0: 9a2c bd3e 575f 0c3e e1f2 17be 96dd 0dbe
000002b0: 6b85 26bf f298 fabe e116 b1bd 1da5 143d
000002c0: 714b bcbc b781 1a3e 2430 8abb aea8 fc3d
000002d0: db52 843b 5890 c03d 7987 0d3e 8743 9d3e
000002e0: 7b72 b3bd 9c0a e73c 800c 5bbd 1d99 ddbd
000002f0: 4197 0a3e 03c1 b63d fa18 353e 7dd5 33bc
00000300: a914 48be e600 9d3d 145c 2e3e e7cb 96be
00000310: 57b3 8bbe 6138 9bbe 3884 0fbe 3cfb 2b3c
00000320: 695d 47bd 91f1 46be 0fb7 04bf 046f 90be
00000330: 8e57 87bd b9b8 453e 567e b5bd 110a 9bbd
00000340: e009 85be 1103 bbbe c529 103b 14bf ad3e
00000350: a988 10be 03a4 c3bd c15f d8be 7c9f 013d
00000360: 6d48 1f3e a8bb 113e 2814 20bc 5903 e3be
00000370: fbaa be3d ff22 803d 5ecf 883e d8ff 313c
00000380: 470a a3be 7c4c 20be 211c 4c3b fcb8 2dbe
00000390: 3039 febd b76b 3dbe b1b3 823e 0833 85be
000003a0: 7bdc bbbe 0db3 e2bd 4506 e83d af7e d93c
000003b0: 1c34 66bd b223 913d fe47 133e c09c 4f3e
000003c0: 720b 72be 0574 e13d 9ad3 b13e 84eb 283e
000003d0: 559e 8f3b 0b8c 9bbc 9b88 893e 200d db3b
000003e0: 00a3 913d 6e6e 74bd
-0.059327964 -0.46596122 -0.1287504 -0.1983353 -0.39882052 0.012565225 0.039340533 0.08382675
0.25747284 0.14970551 0.26944995 0.22522695 -0.15412617 -0.11468514 0.18030979 -0.062405717
0.03975183 0.009430001 -0.024090175 0.038208846 0.032337204 0.07409182 0.18189475 0.06161483
0.12343375 -0.06587487 -0.30891976 -0.32649663 -0.0054612774 0.02816202 -0.1525282 -0.17328633
-0.017926687 -0.02119098 0.27470127 -0.18592252 -0.2445569 -0.09856028 0.08270744 0.2667408
-0.24547994 -0.16635653 -0.03080283 0.107562535 0.27376142 -0.17846765 -0.18588936 -0.1670882
0.14717592 0.34835258 -0.33098105 0.29506418 0.30153376 -0.050176848 -0.18739758 0.23411562
0.36710277 0.10879038 -0.3534 -0.12477776 0.33280787 0.106063895 -0.40601528 -0.3602925
-0.29456618 -0.040028915 -0.23085155 -0.37251005 -0.12187123 0.14625685 -0.18619643 -0.15915516
0.035844486 -0.05359091 0.09141628 0.025895394 0.2163697 0.34747976 0.31335166 0.13835941
-0.30459648 -0.010941727 0.16567649 0.27710384 0.34375957 -0.40936813 -0.15651914 -0.07578771
-0.052115392 0.026570642 -0.41318962 -0.4415619 -0.46794912 -0.38601178 -0.30188656 0.2527934
-0.11593451 -0.16349101 -0.11493377 -0.11833217 0.017517446 -0.086396776 -0.3849322 -0.1315121
0.072532564 0.38879633 -0.060666252 -0.20702569 -0.025616862 0.14053975 0.2392896 0.08289613
-0.35763705 0.09432545 0.17023146 0.1856177 0.003861985 -0.2508514 -0.066342674 0.08081056
0.12434551 0.095720515 0.16289479 -0.0031256923 0.14046131 0.13455166 0.2044318 0.02195882
-0.24880728 -0.03447523 0.08434107 0.2111655 8.481646e-05 -0.032409288 -0.17923018 -0.14874372
0.34506056 -0.09377029 -0.24528097 -0.16728127 -0.1728454 0.29371387 0.21254158 0.07661689
0.084599674 -0.032965466 0.023259928 -0.08171811 -0.14750718 -0.16061684 0.07558731 0.14056507
0.21426985 -0.030307781 -0.2965746 -0.1382154 -0.24034646 -0.124762766 -0.3304219 -0.47210744
-0.072903246 -0.17095569 0.21038775 0.6113608 0.39514092 0.25310683 0.18735795 0.16882984
0.3694809 0.13708244 -0.14838745 -0.1385406 -0.6504733 -0.48944813 -0.08646942 0.036290277
-0.022985192 0.15088545 -0.0042171646 0.123368606 0.0040381975 0.094025314 0.1382121 0.30715582
-0.0876207 0.028203301 -0.053478718 -0.1082022 0.13534261 0.08923533 0.17685309 -0.010976193
-0.19539131 0.07666187 0.17027313 -0.2945244 -0.27285263 -0.3031645 -0.14015281 0.010496911
-0.048673067 -0.19428088 -0.51841825 -0.28209698 -0.066084966 0.19308747 -0.08861987 -0.075702794
-0.25984097 -0.36525777 0.0021997553 0.33934844 -0.14114632 -0.09552767 -0.42260554 0.031646237
0.15554972 0.14231741 -0.009770431 -0.44338492 0.09309956 0.06256675 0.2672071 0.010864221
-0.31843778 -0.15654176 0.0031144696 -0.16965097 -0.124132514 -0.18498121 0.2552772 -0.26015496
-0.3669165 -0.110693075 0.11329321 0.026549665 -0.05620204 0.070868865 0.14382932 0.20274639
-0.23637179 0.11008457 0.34731752 0.16496092 0.0043828883 -0.018987676 0.26862034 0.006684914
0.07111168 -0.059675626

conv1.bias f4 [10]
00000000: c7d8 07be 62df edbe c7b4 74be 9d8f aebe
00000010: 3862 0ebf 69bb 72be cacb e9be 3b66 86be
00000020: b590 bebe 2f11 7bbe
-0.13266288 -0.4645949 -0.23897086 -0.34093943 -0.5561862 -0.23704304 -0.4566329 -0.2624987
-0.37219778 -0.24518274

conv2.weight f4 [20, 10, 5, 5]
00000000: 4ffe d0bd 86c3 a8bd bae2 d4bd d491 d4bc
00000010: 6f42 07bb 6386 6fbc 9f68 67bd 186c 0cbe
00000020: d19c 51bc cbd7 123d dd22 c43d e59c 473d
00000030: aba3 f1bc be56 3cbd be13 d33c 01df 123d
00000040: 8548 423d 80aa a03b 9fec a2bd b4d7 12bd
00000050: 90ca 02bd 3c5f 81bd de85 9a3d d927 61bd
00000060: 8c5b f5bd fd61 03be c11b 93bc 2533 343d
00000070: cf45 dbbd d31b 123d bd6e 1dbe c423 c03d
00000080: e759 683e ac92 24bd 24e5 d43c 75b1 c83b
00000090: 5611 9f3c 4ffe 1e3e 5699 823d 0a6d bd3d
000000a0: 6305 25bd 1eaa 06bc 75e7 fb3d 4be6 fa3d
000000b0: b6b2 4e3e 5ffb 97bd 1fac 89bc be7d 193e
000000c0: 1579 473d 03c4 283d b797 f4bd d9ed cbbd
000000d0: 7747 9fbc 00f4 563b a26d 1fbd fd55 64be
000000e0: d3df 3abe 225e 14be 795f b1bd 8e4e cebd
000000f0: 09c2 96bd 8779 d0bd b488 3abe 3254 9bbd
00000100: fb16 04be cee5 be3d a78f 13bc 8fec 20bd
00000110: 69a8 7bbd 02ef d63c 9250 ee3d 9205 4c3d
00000120: a727 7fbd d316 b53c f606 9c3d 4ba7 c03d
00000130: f5c0 26bc 8e2c 01be 04d6 01be 27b1 983d
00000140: aa3b edbb 6f63 e33d 1cb7 a43d 89e3 423d
00000150: 09f0 843c 0536 c9bd d10b a83c d046 9b3d
00000160: 7f76 ee3c e15a 96bb 68f5 b6bd 50f2 32be
00000170: 983b fcbd fb37 c6bc 6c7b 88bd 3f63 b4bd
00000180: bb2a 26bc 7128 1ebe 23df 3fbe 6b38 d1bd
00000190: cf93 00be 04cc cebd 4e89 b6bd fdf9 84bd
000001a0: e22f 06bd 2a2b f6bd bad4 a7bd 7645 c2bd
000001b0: e44a 563d f096 203d e3a4 d73d da4a 923d
000001c0: 18d6 56bd 991a a0bd 1f9c 27bd 0bb5 213e
000001d0: 7c34 653d 6482 d33d cc47 99bd 42e8 5abc
000001e0: ec83 173e aa3e 343d 8c4a 163d 7035 21bc
000001f0: ab22 40bd 7ec1 f0bd 1f60 1abe 0d06 62bd
00000200: 9514 243d 1d0d 4abd f60b 03be 1b6e ff3b
00000210: 3881 73bd b219 8f3b 03fa b23d 4c7a 883d
00000220: b910 763d 14d9 cbbd a523 413d d457 033d
00000230: 885e 063e 7d4c a53d b622 c4bd 60d1 e43b
00000240: af4f ea3b e4f1 163e 55a0 b5bc 279e eebd
00000250: 6e7d f73c fc70 ac3d afff b0bd 0f40 bebd
00000260: 6cc1 06bd c612 b2bc 66a7 f7bb e573 eabd
00000270: 2ffb 35be 2777 f53b ea44 ae3d be47 c1bd
00000280: 3ca0 b0bd fa43 6bbd f859 61bd 4cf6 9fbb
00000290: 656e edbd 1450 b9bd 1124 ef3c 53c7 bebd
000002a0: 5792 20be c2eb a8bd 9efd 63bd 4cae 6c3d
000002b0: 7dcd 7dbd d8fa 1abe e4a9 bbbd c051 983c
000002c0: 34a5 573d 1320 a8bc 03b6 0c3c 119c 08bb
000002d0: fd6e e63a f0f1 01bd 5d68 a33d 9863 20bd
000002e0: 921d e3bc 3032 203b 261b 6cbd 1e33 433d
000002f0: 03e2 283d e7d8 4bbd 010b b8bd 3366 d3bd
00000300: c75a 40bd 8f84 dabd a318 67bd f516 113d
00000310: e2cd 423d 9e80 98bd 1395 85bd 463e a53c
00000320: 5259 6a3d 6aeb cfbc f3eb 67bd 8698 24bd
00000330: 836f 7a3d f09b 283e 981c 123e 1e5e e1bc
00000340: 6364 df3b 5a07 1a3e 0d16 553e c0fc 173e
00000350: e6e6 ec3d be0b 253d 0eca c93c dacf ea3d
00000360: 1ce3 e83d df3e d73c 9523 c6bc 742e 42bd
00000370: aa9d 8c3c f9b3 28bd 7d05 48bd 72d2 bfbd
00000380: 21e8 8fbd 4b0e 4abe a9f4 5ebe 7281 6bbd
00000390: fb9e 77bc 9eb2 02bd 2f86 8ebc 5667 43be
000003a0: 93bd 03be bb40 4d3d 1224 d13d a45a 533d
000003b0: ef0c babd e50e 4bbd c9c8 04be f845 d3bb
000003c0: a278 88bc cf2a 22bd 520c 8dbd db0f cf3b
000003d0: c4c0 c6bc e88b 70bd 10d8 a6bc ba24 a63d
000003e0: fc40 ce3a 9a23 fabd 1d07 d4bd ba2b 96bd
000003f0: 9b44 763d e139 403d bd02 083b a42d 8dbd
-0.102047555 -0.08240418 -0.10394807 -0.025948443 -0.0020638963 -0.014619443 -0.05649626 -0.1371311
-0.012793736 0.035850327 0.09576962 0.04873361 -0.029496988 -0.04598116 0.02576625 0.035857204
0.04743244 0.0049031377 -0.07955288 -0.03585024 -0.03193146 -0.06316993 0.075450644 -0.054969642
-0.11980352 -0.12830348 -0.01795757 0.043994088 -0.10706674 0.035671066 -0.15374275 0.09381822
0.22690545 -0.04017894 0.025988169 0.00612467 0.019417446 0.15526699 0.06376903 0.09249313
-0.04028834 -0.00821927 0.12300006 0.12250956 0.2018536 -0.07420992 -0.016805707 0.14989373
0.048699457 0.041202556 -0.11943 -0.09957475 -0.019443257 0.0032799244 -0.038922913 -0.22298427
-0.18249445 -0.14489034 -0.08660788 -0.10073577 -0.07361228 -0.101794295 -0.1821621 -0.07584418
-0.12899391 0.093211755 -0.009006417 -0.0392881 -0.061439905 0.026237015 0.11636461 0.04981
-0.062293675 0.02210561 0.07618515 0.094069086 -0.0101778405 -0.12614653 -0.12679297 0.07455664
-0.0072397785 0.1110295 0.08042738 0.047580276 0.016227739 -0.098247565 0.020513447 0.07581866
0.029109238 -0.0045884703 -0.08933526 -0.17475247 -0.12316054 -0.024196615 -0.06664166 -0.08807992
-0.010142024 -0.15445115 -0.18737464 -0.10215839 -0.12556385 -0.10097507 -0.089129075 -0.06492994
-0.03276051 -0.12019952 -0.08194871 -0.09485905 0.052317515 0.039206445 0.105294965 0.07143183
-0.05245027 -0.07817573 -0.040920373 0.15791719 0.055958256 0.103276044 -0.07484397 -0.013361039
0.14796418 0.044005074 0.036692187 -0.009839401 -0.046908062 -0.11755656 -0.1507573 -0.05518155
0.04005869 -0.049328912 -0.12797531 0.007795108 -0.059449404 0.004367077 0.08739092 0.06663951
0.06007454 -0.09953514 0.047153134 0.03206618 0.13121998 0.080712296 -0.09576933 0.0069829673
0.0071506123 0.14740711 -0.022171179 -0.11651259 0.030211177 0.084199876 -0.08642518 -0.09289562
-0.032899305 -0.021737467 -0.0075577972 -0.114478864 -0.177716 0.0074910107 0.08509238 -0.09437512
-0.08624312 -0.057437874 -0.05501744 -0.004881656 -0.11593322 -0.09048477 0.029192002 -0.09315362
-0.15680824 -0.08248092 -0.05566179 0.05778341 -0.061963547 -0.15134752 -0.091632634 0.018593669
0.052647784 -0.020523107 0.008588317 -0.0020844976 0.0017580685 -0.03172487 0.0797889 -0.03915748
-0.027724061 0.0024443977 -0.05764308 0.04765617 0.041231167 -0.0497674 -0.08986474 -0.10322227
-0.046961572 -0.10669815 -0.05641998 0.035422284 0.047559626 -0.07446407 -0.06522574 0.020171296
0.05721409 -0.025380809 -0.056621503 -0.04018452 0.061141502 0.16465735 0.1426872 -0.027510699
0.006817387 0.15041867 0.20809193 0.1484251 0.11567478 0.0402944 0.02463248 0.11465426
0.11371443 0.026275096 -0.024186889 -0.047407582 0.017165024 -0.04118726 -0.04883336 -0.09366311
-0.07026697 -0.19732015 -0.21773018 -0.057496496 -0.0151135875 -0.031908624 -0.017397968 -0.19082388
-0.12865286 0.05011056 0.10211958 0.051600114 -0.09084498 -0.04957475 -0.12967218 -0.00644755
-0.016659085 -0.039591607 -0.068871155 0.006319029 -0.02426184 -0.058727175 -0.020366699 0.08112474
0.001573592 -0.12213822 -0.10352919 -0.07332559 0.06012402 0.046930198 0.0020753585 -0.06893471

conv2.bias f4 [20]
00000000: 202d 9c3b 8100 003c 9ddc 513d 4e57 053c
00000010: 593d 5b3c a518 7cbd 7fe9 8bbd 1a8e ca3c
00000020: b2ae 1cbd e5ba a3bd d429 bc3c ee10 0c3d
00000030: 0473 32bd b46b 76bd 0ba9 bebc 11c1 523d
00000040: 1b28 4e3d 1f6d 8dbd 5a4a 71bc 8a98 e63c
0.0047661215 0.00781262 0.051235784 0.008138491 0.013381326 -0.06154694 -0.06831645 0.024725962
-0.03825254 -0.07994632 0.022969164 0.034195833 -0.04356672 -0.060161307 -0.023273965 0.051453654
0.050331216 -0.06905579 -0.014727199 0.028148908

fc1.weight f4 [50, 320]
00000000: bbbe 023c 51ce d13c d45d 893d 983f 913d
00000010: a811 13bd 570a 27bd 1972 f63c 0a8d a93d
00000020: 18fe 47bc 39c6 bbbc 7de7 53bd 57ba 09be
00000030: 654d 9e3c 810b 483d 66a8 8dbd 772d 36bd
00000040: c6de e2bd cf0c 2ebd 8e0c 34bd c43e c4bd
00000050: 4137 ff3c 5aae 1f3d 4f5f 45be 1a59 993c
00000060: 1dc4 54bc 00e2 953d 9003 3ebd 88bb 7ebc
00000070: 8306 9d3d aa59 693d f6d0 47be 5a0e 36bd
00000080: 5df2 29bc 8e2d 01bc 9dd7 543c 4405 ab3d
00000090: 78f6 a43d 0f52 cebc 8860 7bbd 355d 493c
000000a0: 7d42 553b 5214 a8bd 9112 f7bd aacb 843d
000000b0: 3f47 8dbc 10e6 2f3c 097d 043d 19ef c3bd
000000c0: 478d cabb 4cac 453d f98b 2bbd 5a43 25bd
000000d0: a258 54bd 6d44 3fbd 76c2 943c 27d0 ffb9
000000e0: 2d11 f33b 4f08 9c3c 19e3 c73c 4520 803d
000000f0: 6113 213d 0f40 12bd 9f97 3d3d 9417 843c
00000100: 607c 1fbe c659 60bd 07f7 67bd e378 813d
00000110: 61b0 1b3b 929f 733d f189 333d 70f8 1e3d
00000120: 44b3 333d 763e 3a3d d66d 953d 7463 33bb
00000130: 35ae cf3d 0a65 83bd 5f64 87bd 65ae 923d
00000140: 8f95 393d 0072 b2bd ef99 4cbd 67ca 58bd
00000150: acef c23c 5299 8b3d 3ecc 61bc ee3d 933c
00000160: a84f bb3d 1b5c 083e e37a 71bd 0b69 0dbe
00000170: 6603 613d ff55 433c 0188 90be b93d c63c
00000180: 30f0 3dbd cfe0 e3bd 9473 8cbb d3c9 1ebd
00000190: 829d 16bd 8e0b 8d3d 120f d73d fa06 a2bd
000001a0: ab65 d9bc b213 6cbd b51d 903d 4d2f 58bd
000001b0: 5b31 4f3d 4a64 9ebc 7c48 95bd d6da 5abd
000001c0: c875 23be 2e21 9abc 8124 96bd bf21 82bd
000001d0: 3980 563d 2441 f13d f164 02be 4a9e 9cba
000001e0: 6954 e13d a48b 3dbc 216d 32bb 4e04 86bd
000001f0: a721 ea3c 7e00 72be ce9e ccbc 3cc4 04bd
00000200: 58df ffbc dcb5 f53b fbde 493d 478e 0bbd
00000210: 6fc7 cbbd 3234 bbbb d668 763d b172 4d3d
00000220: 926b e5bd 241a 8c3c 322c 5ebc 374f 2ebe
00000230: 0535 b93d 9003 e23b 8e62 e6bd d3e4 34be
00000240: 294e d83d d565 79ba 7d51 f9bc 75c9 c73b
00000250: fd9d aabd 3a8a b73d 1b1c 543b cf79 f1bc
00000260: faa6 f2bd 5deb 8e3c b5e4 b93c 5067 29be
00000270: ec2c a03d ce3e 053b d55a 84bc af29 743c
00000280: f6c3 3d3c e46e 1d3c dc3f 133d bcce 71bd
00000290: f688 013d 4dc5 503d 081b 963d 435d b93d
000002a0: 9d17 1dbd 5fc2 a5bd 8616 f0bd bf7a 9b3c
000002b0: 73a4 3cbb b2ec 4ebc 69ab e93d e40a a1bd
000002c0: ba68 1cbe a844 0abe 8e37 86bd 28f5 ccbd
000002d0: 797c debd c0fb f83c c952 8ebd fe72 f6bd
000002e0: 1d4b 1bbd 3144 133e c066 91bd 1a09 f0bc
000002f0: 2b22 043d e42e 5b3d ba10 16bd 9488 89bd
00000300: da35 73bc 542f c5bc 5c63 53bd 5c36 c3bc
00000310: e2d9 933d f1fa 923c 9970 393d 9120 9a3c
00000320: a737 d0bd fd02 88bd 5630 b5bd d976 0f3c
00000330: 3214 9bbc bfb5 dc3d 3efb a43d 2261 513d
00000340: e408 843d 3fcd 34bd 44eb 343c d213 8d3c
00000350: 25ad d9bb 2d18 b7bd 167b fcbd 69c3 88bd
00000360: 7ec9 72bd d95b fd3b 1ea7 b93c 724b a8bd
00000370: 766c 2cbd 937c 813d bda1 c03d 2816 563d
00000380: 02ac dd3c 49ab 98bd 0d0a d6bb 2405 c73d
00000390: cd02 083e 7931 ad3d f416 eabd 1a3a 643d
000003a0: a0e6 3d3d ab2b d33c 125e 6bbe 51f0 02bd
000003b0: 82ab c0bd 5dad 8a3d 817d cf3d c5b0 c9bd
000003c0: 88f0 4bbd 6432 11be 349b ccbc 554e 943c
000003d0: 7e4d e4bd ce2e 32bd 1b2f cc3d 26f0 eebd
000003e0: a6d6 243d 6bc7 b13d 6f56 d4bc de9f 69be
000003f0: 0d54 103e fc1a 1ebd 6c23 e5bd 702a d8bd
0.007980044 0.025611075 0.067073494 0.07092208 -0.03590551 -0.040781345 0.030083703 0.08278854
-0.012206577 -0.022921668 -0.051734436 -0.1344999 0.019324014 0.048839096 -0.06916885 -0.044476952
-0.11077647 -0.042492684 -0.043957286 -0.09582284 0.031154277 0.038984634 -0.19274639 0.018719245
-0.01298621 0.07318497 -0.046390116 -0.015547641 0.07667258 0.056970276 -0.19513306 -0.04444728
-0.010372725 -0.007884396 0.012990859 0.08350614 0.08054823 -0.025185613 -0.061371356 0.012290289
0.003254085 -0.08207001 -0.12064088 0.06484158 -0.017245887 0.0107360035 0.032345805 -0.09567089
-0.0061813924 0.04826002 -0.041881535 -0.040347435 -0.05184234 -0.046696115 0.018159132 -0.00048792476
0.007417819 0.01904693 0.02440028 0.06256155 0.03932512 -0.035705622 0.046287175 0.016124524
-0.15574789 -0.054773115 -0.056632068 0.063218854 0.0023756253 0.05947835 0.043832723 0.038811147
0.043872133 0.045469724 0.0729634 -0.002737251 0.10140649 -0.06415756 -0.06610941 0.07162169
0.045308646 -0.0871315 -0.04995149 -0.0529274 0.023795925 0.06816353 -0.013781605 0.017973866
0.091460526 0.13316385 -0.058955085 -0.13809602 0.05493488 0.011922359 -0.28228763 0.024199354
-0.04637164 -0.11126863 -0.004286239 -0.038766693 -0.036771305 0.068869695 0.10500921 -0.07911487
-0.026537737 -0.05763597 0.07036916 -0.052779485 0.05058418 -0.01933493 -0.07289216 -0.053431354
-0.15962899 -0.01881465 -0.07331181 -0.06354093 0.052368376 0.11780003 -0.12733819 -0.0011949029
0.11002428 -0.011568937 -0.002722569 -0.0654379 0.0285805 -0.23633 -0.024978068 -0.032413706
-0.031234428 0.007498486 0.049284916 -0.034071233 -0.09950148 -0.0057130093 0.060158573 0.050158206
-0.11202158 0.017102309 -0.013560342 -0.17022406 0.09043316 0.0068973973 -0.112492666 -0.17665415
0.10561783 -0.00095137703 -0.030434364 0.0060970136 -0.08330915 0.089619115 0.0032365385 -0.029477028
-0.118482545 0.017446214 0.022692064 -0.16543317 0.07821068 0.0020331624 -0.016156593 0.014902516
0.011582365 0.009608958 0.035949573 -0.059035048 0.031624757 0.05096941 0.073293746 0.090509914
-0.038352598 -0.08093714 -0.11723046 0.018979428 -0.0028784543 -0.012629675 0.11409647 -0.07863405
-0.15274325 -0.13502753 -0.06553565 -0.10007697 -0.10863585 0.030393481 -0.06949384 -0.12033652
-0.03791343 0.14381482 -0.07099676 -0.029301215 0.032259148 0.053511515 -0.036637045 -0.06715503
-0.014844382 -0.02407042 -0.05160843 -0.023829632 0.07219292 0.017941924 0.045273397 0.018814357
-0.10166865 -0.06641195 -0.0884711 0.008756363 -0.018930528 0.10776853 0.08055733 0.051118024
0.06447008 -0.04414105 0.01104242 0.017221365 -0.006642955 -0.08940158 -0.12328164 -0.066778965
-0.05927419 0.0077318964 0.022662695 -0.08217515 -0.042095624 0.06322589 0.09405849 0.052267224
0.027059559 -0.07454545 -0.00653196 0.09717777 0.13282318 0.08456702 -0.11430159 0.055719472
0.04636252 0.025777658 -0.22985104 -0.031967465 -0.094077125 0.06771348 0.1013136 -0.09848169
-0.049789935 -0.14179379 -0.02497635 0.018103758 -0.11147593 -0.043501668 0.09969922 -0.116668984
0.040243767 0.08680614 -0.025920121 -0.2281489 0.14094563 -0.038599953 -0.11188397 -0.10554969

fc1.bias f4 [50]
00000000: 9e8e 05bd 7168 443e 24cc 28bc 8b94 0c3e
00000010: e82d e03c 43ca 10bc eca3 8d3d f36f 923d
00000020: 1748 473e 3468 7ebc 1148 5e3d 2b6e 1c3e
00000030: 4421 c33d eeec 273c bfd5 a43d 3bdc eb3d
00000040: d808 0d3d f54c eb3c 4bc8 d13c d3ec 88bb
00000050: cec1 e73d e5b3 4e3d 4925 323e bf2e 10bd
00000060: de64 2b3e 33c6 9e3d 2448 033e f884 29bd
00000070: 99cb 16bd 1326 f63d dd10 153e f180 003e
00000080: 9bae 043e 0cc6 6a3e b605 e33d d04e c8bc
00000090: b9fc 373d c77b 813d 5c7b 9c3c 8d10 363d
000000a0: 97a5 c93d 6394 143d de87 ac3d 1b6e 283d
000000b0: b8af 123e 6737 ec3a c027 2b3e d7ba 003e
000000c0: 3f74 f13d 8c5d 3c3e
-0.032606713 0.19180466 -0.010302577 0.1372854 0.02736564 -0.008837285 0.06916031 0.07150259
0.19461094 -0.015527774 0.054267947 0.152764 0.09527829 0.0102493595 0.08048581 0.11516615
0.034432262 0.02872322 0.025608202 -0.0041786223 0.11316262 0.05046453 0.17397036 -0.03520083
0.16737697 0.07752647 0.12820488 -0.041386575 -0.03681526 0.12018981 0.14557214 0.12549187
0.12957232 0.22927111 0.11085074 -0.024451643 0.04491875 0.06322437 0.019101791 0.044449378
0.09846037 0.036274325 0.08424352 0.04112063 0.14324844 0.0018021882 0.16714382 0.12571274
0.1178975 0.1839506

fc2.weight f4 [10, 50]
00000000: d2f4 82bb ae89 75bd ed5e b9be 669e a7bd
00000010: a898 1fbe 46c2 7bbe 597e 6c3e 6587 1bbe
00000020: 5c1b 9f3e bfa0 c4bd 9132 8cbe 66ad 90be
00000030: 603b f1bd b8cf 7e3e 90ec 353e cfab 63be
00000040: 9af3 8d3e 6f5b fabd d5fe 3f3e a015 0fbc
00000050: 5984 95bd ca19 48be 65ea 38be d451 8bbe
00000060: 0d35 49be 5149 65be 1358 883e 0b05 67bb
00000070: f4cb 24be 32d3 d03b bc2f 46be 9a71 88be
00000080: 2754 66be e2e8 9f3e 1ab9 793e 83f2 7fbe
00000090: cec8 4b3e f44d 6d3e 4dfd 8ebe f060 ab3e
000000a0: 37e0 5a3e 7448 81bd f4c4 763e 2b43 b2be
000000b0: 3ed1 9d3d 12c1 4d3e 864b 4dbe c115 b2bd
000000c0: 274a 873e 9528 93bd 7a89 23be e6a9 b43e
000000d0: 9e60 71be b7f7 ab3e dc1a 75be 3a78 63be
000000e0: f2b1 47be c675 6a3e 36e6 9b3e 867e 93be
000000f0: 4e1b 8c3e 85e4 563e 374f 10be 8bea 85be
00000100: 3e9c 65be 5810 6e3e bef7 8bbe e8ba babd
00000110: b173 3f3a 3644 99be dc60 1a3e 63b8 4dbe
00000120: f4f1 a33e 2308 99be 7821 3f3e 4d49 853e
00000130: b136 35be 197c f5bd 942e 39be 998d 823e
00000140: 3dac 5d3e ef13 7b3e b344 943e b1aa 6a3e
00000150: 8bd5 c4bd d649 d13c 6c49 83be fd5f 98be
00000160: 2500 3ebe 5d53 05bd 94d6 ecbe 684e 81be
00000170: bbb0 6ebc 9e1d 83be 276d 523e e2de aebe
00000180: 543c 0d3e 863c 493e 5a03 0fbe fe53 493e
00000190: ec5b cebd 97ae 06be 9404 54be 0313 8abc
000001a0: 565b 0f3e 14fb a0bd 74e0 653e 10c3 633e
000001b0: c86c 0cbd 50b9 8cbd 7a55 51be 8fc4 d8bd
000001c0: 1c6f 493d f163 f83d 833d 5a3e 8f38 9dbe
000001d0: ed1e 73be b74e 74be 055f ddbd 39ea 8a3e
000001e0: f6f2 553e 5e82 82bd b640 a73e 2a44 55be
000001f0: 78d6 7f3e 2ad6 943e 70df 2cbd b2ce 933e
00000200: 7bdb 5bbe 1649 e5bd 74ed c4bd e8b9 163c
00000210: 314e 49be f09a 75bd 2ed7 87bd b0f0 9f3e
00000220: 74ea 1cbc 45db 72be 7eea fa3d 78cc b63e
00000230: d79c cf3d b8b0 91be 4927 833e 0705 82be
00000240: d6fc 523e d443 b0be 9d3c 2e3e 4cbb 363e
00000250: 6bcd 203e deac c83c 8f96 44be 651e 30be
00000260: b666 383e d5a8 52be 42f6 a83e d758 edbd
00000270: 7025 5c3d ff34 763e 1813 12be e62a 5bbe
00000280: ea65 e6bb 081d 683e fda9 533d 6444 5c3e
00000290: 3079 233e 67c9 853e e866 83be 9300 823e
000002a0: 60c0 923e 689e cbbd 182f 83be 0a9a 733e
000002b0: 4e89 12bd 4d01 4a3e 6950 703e 49a5 5b3e
000002c0: e810 38be 4d0e 8a3e 8b82 513e a51a 70be
000002d0: 2bc7 1bbe f6ac 55be f1b8 8fbe c9c1 55be
000002e0: 519b 0fbe 3909 a13e eb14 f53b 27d3 3fbd
000002f0: 4006 563e ae55 cebd 4262 a8be 82ad 34be
00000300: 4f87 36be 9856 373e 110e a6be 5de6 8fbe
00000310: b2a8 273e fb46 0c3e a121 4f3e ad87 9dbe
00000320: f35e c03e d339 e0bd 2446 6a3d fc2d 06be
00000330: 0624 5b3e 309c bf3e 5c49 26be bef0 9bbe
00000340: 9df9 96bc 06c5 963e bf41 b13e 62d1 633e
00000350: 4c45 80bd 9144 8fbe aca9 143e 67a2 1bbe
00000360: e4d0 c2bd bece 2fbe d471 25be d386 5c3e
00000370: 6d96 473e 3ce0 5a3e 3f13 a6bd bbf9 693e
00000380: 85fc 5bbe bb27 57be 97cb 75be d1bb 67be
00000390: 5b23 9e3e 791a 983e bb8a 423d cb1b 873e
000003a0: f461 933e fdd4 9abe c32a 1ebe 83af 0fbe
000003b0: a061 8dbe 1bbd 42be 82e1 bfbe 4c9e 763d
000003c0: 3eb8 3e3e caa6 12be bd84 e83d ae1c 293e
000003d0: b311 803e 8ad3 853d 8563 223e 16fe 8abe
000003e0: 2335 a7be dd32 713e ec78 dabd 2b5d 623d
000003f0: 8195 713e 4111 29bd f48a 0bbd 17ed 63be
-0.00399647 -0.059945755 -0.36205235 -0.08184509 -0.15585577 -0.24585828 0.23095073 -0.15188368
0.3107556 -0.096009724 -0.2738233 -0.28257293 -0.11778903 0.24883926 0.17766023 -0.22233509
0.27724916 -0.12224471 0.18749554 -0.008733183 -0.07300634 -0.19541088 -0.18058164 -0.27210867
-0.19649144 -0.22391249 0.26629695 -0.0035250809 -0.16093427 0.0063728327 -0.19354147 -0.2664917
-0.22493039 0.31232363 0.24387017 -0.24994855 0.1990082 0.23174268 -0.27927628 0.33472395
0.21374594 -0.063126475 0.24098569 -0.3481687 0.077059254 0.20093182 -0.20048341 -0.086955555
0.2642376 -0.07185475 -0.15970412 0.35285872 -0.23572013 0.3358743 -0.23936027 -0.22213832
-0.19501474 0.2289649 0.30449075 -0.28807467 0.27364582 0.20985611 -0.14092718 -0.26155505
-0.22422883 0.23248422 -0.2733745 -0.09117681 0.0007303311 -0.29934853 0.15076011 -0.20089869
0.32020533 -0.2988902 0.18665111 0.26032487 -0.17696644 -0.119865604 -0.18084174 0.25498655
0.21647735 0.24519323 0.28958663 0.22916676 -0.096110426 0.025547903 -0.25641954 -0.29760733
-0.18554743 -0.032550205 -0.4625746 -0.25255132 -0.014568503 -0.25608534 0.20549451 -0.3415442
0.13792545 0.19651994 -0.13966122 0.19660947 -0.100761265 -0.13152538 -0.20704871 -0.016854769
0.13999686 -0.07860389 0.22448903 0.22242379 -0.03428343 -0.06871283 -0.20442763 -0.105843656
0.049178228 0.12128437 0.21312527 -0.30707213 -0.23742266 -0.23858152 -0.10809139 0.27131823
0.20893463 -0.06372522 0.32666558 -0.20826784 0.24984157 0.29069644 -0.042205274 0.28868634
-0.21470444 -0.11195581 -0.09615603 0.009199597 -0.19658734 -0.059962213 -0.06632839 0.31238317
-0.009577382 -0.23716457 0.12251757 0.35702872 0.10137337 -0.28455138 0.2561591 -0.2539446
0.20604262 -0.3442675 0.1701531 0.17844886 0.1570336 0.024496492 -0.19198059 -0.17199095
0.18007931 -0.20572217 0.3300038 -0.115892105 0.05374664 0.24043654 -0.14265096 -0.21403083
-0.007031192 0.22667325 0.051675785 0.21510464 0.15964198 0.2613022 -0.2566445 0.25391063
0.28662395 -0.09942323 -0.25621867 0.2378923 -0.035775475 0.19727059 0.23468174 0.2144977
-0.17975199 0.26964036 0.20459954 -0.23447664 -0.15212695 -0.2086676 -0.28070787 -0.20874704
-0.14024092 0.3145235 0.0074793003 -0.04683223 0.20900822 -0.10074936 -0.32887465 -0.17644313
-0.17825054 0.17904127 -0.32432607 -0.2810544 0.16372946 0.13698952 0.20227672 -0.30767575
0.3757244 -0.10948529 0.057195798 -0.13103479 0.2140046 0.3742385 -0.16238922 -0.3045711
-0.018429572 0.29447192 0.34620473 0.22247842 -0.06263217 -0.27982 0.1451785 -0.1519867
-0.09512499 -0.1716871 -0.16156703 0.21535806 0.19490977 0.21374601 -0.0810914 0.22849171
-0.21483047 -0.2101125 -0.24003445 -0.2263024 0.3088635 0.29707697 0.047495585 0.26388392
0.2878567 -0.30240622 -0.15446 -0.14031796 -0.27613544 -0.1901745 -0.37476736 0.060209557
0.1862497 -0.14321437 0.11353443 0.16514847 0.25013503 0.065344885 0.15858276 -0.27146977
-0.32657728 0.23554559 -0.10667595 0.055264633 0.23592187 -0.04127622 -0.034068063 -0.22258411

fc2.bias f4 [10]
00000000: fac3 be3e 93d5 143f 0705 f23d 08be 1cbe
00000010: 5db8 48be d282 3bbe cc23 cbbd 3e3d 8abd
00000020: a08b cb3c ef3f debd
0.37258893 0.5813839 0.11817365 -0.15306866 -0.19601579 -0.18311623 -0.09918937 -0.06749962
0.024846852 -0.10852038
